checkpoints/SID/sid.pth (torch, 361050 bytes, 80 tensors)

conv.weight f4 [32, 3, 3, 3]
000000 f4 92 cf 3d 48 ac 26 be b4 4d 1a 3e c8 c1 ba 3d
       0.10135451 -0.16276658 0.15068704 0.09118992
000010 d2 16 22 3e 0e 6b 34 be 7f 55 f0 bd 08 a3 95 3d
       0.15829018 -0.17618963 -0.11735057 0.07306486
000020 65 5c 4e be d8 93 59 3e ac ec d2 3d f7 34 0a 3d
       -0.20152433 0.21247804 0.10299048 0.033741917
000030 38 45 6b be 21 cd a1 3d ec 71 13 3e b6 5d 7c 3d
       -0.22975624 0.07900453 0.14398926 0.061612807
000040 55 33 4b 3e 7e 5c e5 3d 42 80 09 be 30 96 1d 3e
       0.198438 0.11199282 -0.13427833 0.15389323
000050 2c 40 8d 3d 2d 63 9e bd f8 f9 23 be 16 13 08 3e
       0.068970054 -0.0773376 -0.16013324 0.1328853
000060 59 0c 38 3e 87 52 0c be b4 f7 b9 3c 2a b5 d9 3d
       0.1797346 -0.13703357 0.022701122 0.106302574
000070 87 1f e7 bd 6e fe 58 bd 6c 1d 35 be 56 10 9e bd
       -0.1128531 -0.052977018 -0.17687005 -0.077179596
000080 fb 0f 24 be 4a d2 0e bc 72 fa 1b 3e b8 15 05 3d
       -0.16021721 -0.008717129 0.15232256 0.032491416
000090 c7 ee 1a 3e 37 26 4c be 8d 7a ec bc 6d 0a 8d 3e
       0.15130149 -0.19936453 -0.02886703 0.27547017
0000a0 81 1c 30 be 61 73 48 bd 5e ba 02 be c6 08 5b 3d
       -0.17198373 -0.04893816 -0.12766406 0.053475164
0000b0 92 d1 55 3e f7 68 f1 3d a3 76 1c 3e 2f eb 47 3d
       0.20880726 0.117875986 0.15279631 0.048808273
0000c0 2c 7f 03 3e 52 57 17 be 5a d5 e7 3d 39 a0 d9 bc
       0.12841481 -0.14779404 0.113199905 -0.026565658
0000d0 dd fe 07 bd d1 b5 03 bd 68 c9 33 3e b6 ed ce 3d
       -0.03320204 -0.032155816 0.17557299 0.101039335
0000e0 54 94 9f 3d 8b 98 aa bd 6c e1 86 bd 74 94 0f 3e
       0.07791963 -0.083298765 -0.065859646 0.14021474
0000f0 81 4c 9d bd a1 f5 b9 bd 20 ca 51 bd 3d ea 0b be
       -0.076806076 -0.09080053 -0.051218152 -0.13663574
000100 b5 50 47 be 4a 8a 38 3e 43 cf a1 bb d5 c2 d1 3d
       -0.19464381 0.18021503 -0.0049380376 0.102422394
000110 de 31 7a 3e 4e dc 9e be ba 0c 5c 3e 23 a4 28 be
       0.24433085 -0.31027454 0.2148923 -0.16468863
000120 cb 0a 6b bd 87 dd 7f 3d 26 36 09 3e c5 06 92 3d
       -0.05738334 0.062467124 0.13399562 0.071301974
000130 7b 66 2a 3e 8e 9f 93 3d c8 15 99 bd 98 05 34 bd
       0.16640656 0.07208167 -0.074748576 -0.043950647
000140 a7 92 c3 bd 3b e7 cb bc b3 3f e6 bc bf d6 c0 3d
       -0.09549456 -0.024890533 -0.028106546 0.094159596
000150 59 a4 18 3e 4a 66 0c be f3 bf aa bd 4b 04 47 bd
       0.14906444 -0.13710895 -0.08337393 -0.04858808
000160 83 4c 3d 3c 55 e4 5f bd ea cc b5 bd 93 8c ff bd
       0.011553886 -0.054661114 -0.08876975 -0.12477984
000170 57 cc 35 be 9e 5e e8 bb e7 52 d1 bd 80 46 1f bd
       -0.1775373 -0.0070913574 -0.102208905 -0.038885593
000180 c5 4e cd 3b 44 12 3c bd d8 fc 4e 3e 22 ca 01 3e
       0.0062654936 -0.045915857 0.2021364 0.12674764
000190 94 0a 1f bd b8 51 26 be 42 43 04 be 89 5f 32 be
       -0.038828447 -0.1624211 -0.12916282 -0.17419256
0001a0 e6 91 78 ba 14 57 a7 bd e9 98 0d be 49 38 7f 3c
       -0.000948219 -0.08170906 -0.13827862 0.015577384
0001b0 7d 4f 37 bc 81 9d db bc cf 5d 8b bd 95 bb 30 3e
       -0.011188385 -0.026808502 -0.06805002 0.17259057
0001c0 5b 8e 4f be 13 93 c0 3c 91 77 aa 3d c4 bf 1e 3e
       -0.20269148 0.02350763 0.08323587 0.1550284
0001d0 aa 9f 4d be 10 1e 3d bd 65 23 74 3e 69 f0 85 3d
       -0.20080438 -0.046171248 0.23841627 0.06539995
0001e0 cd d9 90 3d ef e8 11 bd 9a 21 25 3e b8 2a 5c bd
       0.07072792 -0.035622533 0.16126099 -0.053751677
0001f0 3e de 46 be 54 51 3c 3e 67 ed a1 3d 32 87 e5 3c
       -0.19420716 0.18390399 0.07906609 0.028018568
000200 cf 50 c3 bd e3 de c9 bc f3 b9 16 be 46 60 e6 bd
       -0.095368974 -0.024642413 -0.14719371 -0.112488315
000210 d8 5b e9 bc 05 48 43 3d 9a d2 17 be 6e 2c 54 3e
       -0.028486177 0.047676105 -0.14826432 0.20720074
000220 35 fc 06 3e 4f fd 05 be 02 a1 4f 3d 9e 10 3d be
       0.13182147 -0.13084911 0.05069066 -0.1846337
000230 67 71 3b be 4a 0b 62 3e 0c e6 1c be 02 6c a5 bd
       -0.18304978 0.22074619 -0.15322131 -0.080772415
000240 3f 5a d2 3d ce b6 e4 3d be 80 00 be 76 19 62 bd
       0.10271119 0.1116768 -0.12549111 -0.055200063
000250 a8 e3 2a 3d 2e 0d 13 be 5f e5 a5 bd 64 99 f3 3d
       0.041721016 -0.14360496 -0.0810039 0.11894491
000260 1c ed d8 3c 85 44 9f 3d cf 4c 9f bd d2 e6 31 be
       0.02648025 0.07776741 -0.07778322 -0.17373207
000270 f6 68 94 3d 2b e3 5f be e0 64 84 bc c3 2b 2e 3d
       0.07246582 -0.21864001 -0.016161382 0.042522203
000280 7c eb 29 3c 3a a4 18 3e ec 39 04 3d ce 53 a8 3d
       0.010371085 0.14906397 0.0322818 0.082191095
000290 45 a4 20 3e 08 de be 3c ff fb c1 3d 37 f8 60 bd
       0.15687664 0.023299232 0.094718926 -0.054924216
0002a0 09 de de 3d 78 14 59 3e d8 5f de bd ba 08 23 3e
       0.108821936 0.21199214 -0.108581245 0.15921298
0002b0 c6 f1 b0 3c 90 a7 7d bd 4d fd 1f be 4a 9e a0 be
       0.021599662 -0.06192738 -0.1562397 -0.31370765
0002c0 d0 56 6e be 9f 9b 55 be 66 cb 40 be 4f c3 ba bd
       -0.23275304 -0.20860146 -0.1882759 -0.091192834
0002d0 3d f8 34 be 79 7b 13 be 0b 89 27 3c 36 44 27 be
       -0.1767282 -0.1440257 0.010225545 -0.16334614
0002e0 48 82 db 3a ff 26 5f 3d d8 7d 23 3d 8e 8d a1 3d
       0.0016747201 0.05448055 0.039914936 0.078883275
0002f0 f8 fc fe 3d 58 25 bf bd c3 f6 5f bd 78 38 50 bb
       0.12450594 -0.09333295 -0.05467869 -0.003177194
000300 ff 78 2c 3e a8 33 d7 3d 44 42 f0 bd a2 10 4d bc
       0.16843031 0.105078995 -0.11731389 -0.012516173
000310 4b 92 ab bb e7 a5 17 3d ec a5 6a bd 39 b3 3d be
       -0.0052359453 0.03702345 -0.05728714 -0.185254
000320 a7 02 5a be f2 06 65 3d ac 89 4f be 5a fc 47 3d
       -0.21290074 0.055914827 -0.20267361 0.048824646
000330 2b e1 4b 3e fb ad 0d 3d 97 05 b9 3d bd 96 0f 3e
       0.19910114 0.03458975 0.09034269 0.14022346
000340 52 71 fc 3d 8b 15 4a be ee 31 18 3e 61 14 b3 3d
       0.12326302 -0.1973478 0.14862797 0.08744121
000350 4f 32 2b be 2a 46 d7 3b 39 2b 0e be 45 a0 22 3e
       -0.1671841 0.0065696435 -0.13883676 0.1588145
000360 28 e4 3c 3e 19 ce fc bd 4c 54 26 be 7a 22 52 bd
       0.1844641 -0.123439975 -0.16243094 -0.05130241
000370 05 28 95 bd a5 67 83 3d b6 d0 0f be bf c7 02 3e
       -0.07283024 0.06416253 -0.1404446 0.1277151
000380 62 f8 20 bd 2b 9b d7 3c 03 23 82 be dd 5f f6 bd
       -0.039299376 0.026319107 -0.25417337 -0.12030003
000390 9e 40 82 3e 8d e5 c0 3e 60 26 83 bd b9 13 26 3d
       0.25439924 0.37675133 -0.06403804 0.040546153
0003a0 cd 92 0f bd 47 b1 29 3e 6a 4f 4f be 12 b9 ae bd
       -0.03505211 0.16571532 -0.20245138 -0.08531393
0003b0 18 3a 0a be 2e b2 41 3e ff 95 89 bd 5e 7b bc 3d
       -0.13498724 0.18915626 -0.067180626 0.09203218
0003c0 b2 71 83 3d 55 06 5e 3c a4 b7 08 3d d1 6f ef 3d
       0.0641817 0.013551314 0.03337826 0.11691249
0003d0 33 58 c7 bc cf 08 66 3d e6 66 e5 ba a6 bf 79 3c
       -0.024334049 0.056160744 -0.001750198 0.015243446
0003e0 bd 5e bf 3d 46 f2 2c be fb 17 47 bd cc 72 07 be
       0.09344242 -0.16889295 -0.048606854 -0.13227385
0003f0 8c 55 d1 bd 74 02 95 3c aa e6 6a 3e 15 cd 3b be
       -0.10221395 0.018189646 0.22939554 -0.18339951

network.1.0.conv.weight f4 [64, 32, 1, 1]
000000 88 50 1d be f7 86 31 3d db 22 3f be 66 74 f8 bd
       -0.15362751 0.043341603 -0.1866564 -0.12131576
000010 80 02 3a be 60 f7 e1 bd e1 7d f6 3d 21 b2 f2 3d
       -0.18165016 -0.11033511 0.12035728 0.11850382
000020 88 90 10 be 5a a0 93 3d 41 90 84 be 8e ae 89 bc
       -0.14117634 0.07208319 -0.25891307 -0.016806867
000030 c6 e5 94 bd 77 1e 50 be 29 0a 26 3e 39 80 20 bd
       -0.07270388 -0.20324121 0.16214813 -0.039184783
000040 32 de 1c 3d 6f 83 90 3d 91 d8 b0 3d 89 82 93 3c
       0.03829784 0.07056319 0.08635057 0.01800658
000050 1f 73 0b bd 51 bf 85 be 76 bd 0d 3e 2a 64 5f be
       -0.034045335 -0.26122525 0.13841805 -0.21815553
000060 4d 56 a8 bd c4 f6 06 be c9 74 b3 3d 2c fe a7 3d
       -0.082195856 -0.13180071 0.087625094 0.08202776
000070 02 b8 d2 3d 74 5e e4 3c b3 1a fa 3c 3e be e1 3c
       0.10289003 0.02787707 0.03053031 0.027556535
000080 cf 5d fa bd 32 ef 8c bd 49 5d a9 3c d4 38 f8 3d
       -0.12224924 -0.068815604 0.020674365 0.12120214
000090 19 0e 58 bd 68 8e 32 be b3 c9 ca bd f6 e8 fb 3b
       -0.05274782 -0.17437136 -0.09901752 0.007687683
0000a0 9b cf 8b 3e 75 95 38 3e 67 e9 08 be a5 59 e6 bc
       0.27306828 0.18025763 -0.13370286 -0.028118918
0000b0 97 c2 e2 3d 9b e6 74 3e a1 88 86 3c 4b b0 94 3d
       0.11072271 0.23916094 0.016422572 0.07260188
0000c0 83 c5 85 bd a7 4c 67 3e e3 99 ba bd e1 32 c9 bd
       -0.06531813 0.22587834 -0.09111383 -0.098241575
0000d0 fa ce 8c bd 11 e8 45 bc ca 7f c6 bd 65 dd af bd
       -0.06875415 -0.012079255 -0.096923426 -0.085871495
0000e0 34 12 b4 bd 21 1d 04 3e c8 19 ab bd dc f8 ca bd
       -0.087925345 0.12901737 -0.08354527 -0.099107474
0000f0 5f 1f 00 bb f5 5e 01 3d bf 60 3d be ca 8b 5b bb
       -0.0019549949 0.0315847 -0.18493937 -0.0033500069
000100 4b 45 ec bd 3c 5a bc 3d 0f 9a ed 3c b5 26 7c bc
       -0.11536654 0.09196898 0.029004125 -0.015390088
000110 8f 9f 49 be 80 de 50 be 51 f9 3f 3e 98 b9 a6 bd
       -0.19689773 -0.20397377 0.1874745 -0.08140868
000120 02 ab 74 bd 40 cd f2 bd ac 77 8d 3d 71 c4 1f 3c
       -0.0597334 -0.118555546 0.06907591 0.009751425
000130 e9 1f 39 be c1 61 91 bd 7f 7c 08 3e 28 c4 65 be
       -0.18078579 -0.07098723 0.13328741 -0.22438109
000140 4f 5e 08 be ba 1b 90 bd a9 db 03 be 0e eb 60 be
       -0.13317226 -0.070365384 -0.12876762 -0.21964666
000150 4f 9b 13 be 2e 2b 68 bd a8 6a 26 be 0e 90 a1 3d
       -0.14414714 -0.056681804 -0.16251624 0.078888044
000160 6b 77 26 be 1a 45 96 3d 3d 63 ec 3c 4e 3b 9c bd
       -0.16256492 0.07337399 0.028855914 -0.07628499
000170 85 1b a5 3c 19 e5 19 be 17 c0 7f 3d db 60 47 3e
       0.020154724 -0.150288 0.06243905 0.19470541
000180 d2 7b f2 3d 50 76 02 be e6 8a 44 be e6 86 17 3e
       0.11840023 -0.12740445 -0.1919361 0.14797553
000190 06 c7 46 3d ab 8c e5 3d 5a 89 f2 bb 8c 45 08 3b
       0.048529647 0.11208471 -0.0074016275 0.0020793406
0001a0 3e 43 f5 bd af 86 ff bd d0 01 12 be 83 e7 00 bd
       -0.11975716 -0.12476861 -0.14258504 -0.031470787
0001b0 e6 30 29 bc 4e a4 55 3e 81 8e 26 bd 52 d6 a3 3d
       -0.0103266 0.20863459 -0.040663246 0.07999863
0001c0 34 c7 33 3e 20 32 01 be 7d 87 99 bd cd 2b 1c be
       0.17556459 -0.12616777 -0.074965455 -0.15251084
0001d0 3d 52 97 bd 1c 4d 5c be 16 73 ab bd e9 b4 f7 3d
       -0.073887326 -0.2151379 -0.0837156 0.12095053
0001e0 18 ee bb 3d e6 38 c7 38 60 42 a1 3d 83 04 e8 bd
       0.09176272 9.4996576e-05 0.07873988 -0.113289855
0001f0 b4 51 ce bd a8 6d ae bd ca ea b0 bc d0 5d 29 3c
       -0.100741774 -0.08517009 -0.021596331 0.010337308
000200 04 23 b2 3d 53 3c 21 3e a8 e7 6b bd 89 1b 21 be
       0.08698085 0.15745668 -0.05759397 -0.1573316
000210 67 7d 40 3e 6c 17 78 3d e4 68 0d bd 27 2b c4 bc
       0.18797837 0.06056921 -0.03452386 -0.023946358
000220 e0 78 05 3e af 7e 95 bd 86 8d f6 bd 47 1d 22 bc
       0.13034391 -0.072995536 -0.12038712 -0.009894676
000230 df ff 9c bd d3 6d c8 bd 58 1f 29 3d 13 75 bb bd
       -0.07665991 -0.09786572 0.041289657 -0.091531895
000240 ac de 6e 3c de 5f bf bd 5f 69 6c bb e7 26 dc bd
       0.014579456 -0.09344457 -0.0036073548 -0.107496075
000250 60 ac 15 3d c7 27 2b be 15 36 49 3e 2b dd 4f be
       0.036541343 -0.16714393 0.19649537 -0.20299213
000260 73 2c bf bd fd ba 09 bd 16 a5 78 bd 65 96 f4 3d
       -0.0933465 -0.03362559 -0.060704313 0.11942748
000270 91 b6 8a 3d bc 5e 6e 3d 05 15 42 3d df 69 e7 bd
       0.06773103 0.058195814 0.047383327 -0.1129949
000280 a2 c2 f5 3d 70 56 2b bc d9 9e aa 3d 35 60 11 bd
       0.12000014 -0.01045762 0.08331079 -0.03549214
000290 31 aa 50 3d 8f a2 93 3d 7e 69 18 bd a2 67 00 be
       0.050943557 0.0720874 -0.03720998 -0.12539533
0002a0 26 da 38 be 7d 4b da 3d 85 6d bc 3c a9 46 9b bd
       -0.18051967 0.106589295 0.023001442 -0.07581837
0002b0 31 e1 76 bd a4 c5 94 be 50 93 db bd b9 83 84 bd
       -0.060273353 -0.29057038 -0.10721457 -0.064704366
0002c0 0c 4a 06 3d 17 7f 02 be 2d 88 f6 bb 1f 67 8e 3d
       0.03278546 -0.12743793 -0.0075235576 0.069532625
0002d0 6d 3d 2d be bf 27 21 bb d4 ab ce bd 1c 8b 44 be
       -0.16917963 -0.002459034 -0.10091367 -0.19193691
0002e0 a8 53 11 be 94 e0 ec 3c 08 81 1f 3e 30 92 2c be
       -0.14192069 0.028915681 0.15576565 -0.16852641
0002f0 b9 c4 85 bc 1d 1b 89 3c 29 57 c1 3d 1f c1 f0 bd
       -0.016329156 0.016736561 0.094404526 -0.11755585
000300 75 b4 d2 bc d7 ca aa 3d a7 bf ba 3d f9 3b 77 bd
       -0.025720814 0.0833947 0.09118586 -0.06035993
000310 ff bf 0c 3d 90 30 16 3c a6 78 65 3b 1f e1 6a 3d
       0.03436279 0.009166852 0.003501454 0.0573436
000320 be 29 42 bd b7 98 ad bc 02 80 a2 3b 66 99 fa bd
       -0.04740309 -0.021190984 0.0049591074 -0.1223629
000330 c6 69 25 3e b2 a3 34 be 99 c7 1d be cb 29 b0 bd
       0.1615363 -0.1764057 -0.15408172 -0.086017214
000340 e7 65 25 be 76 fa c1 3c da 5a f1 3c 77 9c 63 3d
       -0.16152154 0.023679 0.029462267 0.05556914
000350 a7 3b f2 3b 4f 13 b3 bd 68 8a cc bd f8 14 71 be
       0.007392365 -0.08743917 -0.099873364 -0.23543155
000360 6c 35 58 3d 59 8a 08 be d9 53 be 3d e8 f3 ab bd
       0.052785322 -0.13334025 0.092933364 -0.08396131
000370 40 af 63 bd c3 aa c1 3d 25 e9 3a bd fb f1 a9 3d
       -0.055587053 0.09456398 -0.0456325 0.08298107
000380 33 70 d7 3d fc 9d 9e 3d 48 72 62 3c 44 45 86 3c
       0.10519447 0.07744977 0.013821192 0.01639045
000390 de 0d 37 3e 38 a1 e8 bc 4e 98 c4 bd f1 f3 e2 3d
       0.17876384 -0.028397188 -0.09599362 0.110816844
0003a0 08 cd b6 3d 91 ac 9a bd 40 fc 20 3e 94 a1 44 3e
       0.08925825 -0.07552446 0.15721226 0.19202262
0003b0 c5 a3 c5 ba fe c2 62 bd 1b 2e 5e bd 8c d1 f1 bd
       -0.0015078714 -0.05536174 -0.05424319 -0.11807546
0003c0 dd 8f 1f 3e e7 16 bb 3d bf c4 c6 bd 20 3f 20 bd
       0.15582223 0.09135228 -0.09705495 -0.0391227
0003d0 b2 35 3c bd 53 75 bd 3c 20 19 44 be 4d d7 2a be
       -0.045949645 0.023127234 -0.1915021 -0.16683693
0003e0 ec a2 b0 bd 95 4f 81 bd 3f 87 9b bd 52 a6 41 be
       -0.08624825 -0.06314007 -0.075941555 -0.18911102
0003f0 6e 1a c3 3d 54 f4 e1 bd 39 2a 83 bd e0 dc 53 bd
       0.095265254 -0.1103293 -0.06404538 -0.051724315

network.1.0.fdeb.norm.weight f4 [32]
000000 74 02 79 3f c9 dd 7b 3f 72 ae 81 3f 84 24 7c 3f
       0.9726937 0.9838529 1.0131361 0.9849322
000010 a2 07 7d 3f 39 45 7c 3f 0a f2 80 3f fa 4f 81 3f
       0.9883977 0.98543125 1.0073864 1.0102532
000020 c5 fc 80 3f 2d 70 7d 3f df 34 84 3f 22 30 7e 3f
       1.0077139 0.9899929 1.0328635 0.99292195
000030 ef cc 81 3f d8 18 79 3f 7e d2 7c 3f fd eb 7c 3f
       1.0140666 0.97303534 0.98758686 0.9879759
000040 1e 21 78 3f 6b f6 7c 3f cb 63 82 3f f7 ec 81 3f
       0.9692553 0.98813504 1.0186704 1.0150441
000050 55 a7 79 3f e0 f0 77 3f f0 71 7d 3f c4 2b 76 3f
       0.97520953 0.9685192 0.9900198 0.9616053
000060 10 a7 82 3f 89 5e 83 3f 5a c7 84 3f 60 bd 7e 3f
       1.0207233 1.0263225 1.0373337 0.99507713
000070 fd 7b 82 3f c0 90 7c 3f ed 01 7e 3f 61 8f 76 3f
       1.0194088 0.9865837 0.9922169 0.9631253

network.1.0.fdeb.norm.bias f4 [32]
000000 4a 5b 94 3c 62 97 10 3c 99 29 f4 bc f3 a3 78 3c
       0.018109936 0.008825155 -0.029804992 0.015175807
000010 9b 70 a3 bb 26 77 04 3d 32 94 3d bb 29 a8 9e bc
       -0.004987789 0.03234019 -0.0028927443 -0.019367294
000020 de 10 bb bb 44 02 e6 bb 04 3c 3d bd 5a 85 52 3c
       -0.005708798 -0.007019313 -0.046199813 0.012849176
000030 8d 49 e7 3b 73 94 61 bc 21 77 58 3c de 6d 18 bd
       0.0070583285 -0.013768303 0.013211996 -0.037214153
000040 96 e4 97 3b a9 c1 85 bb a6 32 b7 bb 1c ca c8 b9
       0.004635404 -0.004081924 -0.0055907546 -0.00038297556
000050 7f be a5 3c 03 6b a0 bc d4 9d 46 bb 7e 0f 02 3d
       0.020232437 -0.019582277 -0.0030306475 0.031753056
000060 e6 48 40 3c d7 7c 9e 3c f0 60 6a bb 74 03 f0 bb
       0.01173613 0.019346638 -0.0035763346 -0.0073246304
000070 7e 9a 27 38 55 08 d3 3b b6 a4 bd 3c 06 a1 c6 bb
       3.9959785e-05 0.0064402022 0.02314983 -0.006061676

network.1.0.fdeb.fcs.0.weight f4 [64, 32, 1, 1]
000000 f6 a3 0c bd b8 1b d5 3c b8 f5 b7 3d f0 1d 21 bd
       -0.034336053 0.026014194 0.08982414 -0.03933519
000010 db 4d a8 bd 75 96 e9 bd 63 41 9b 3b 99 02 2e bd
       -0.08217975 -0.114056505 0.0047380193 -0.042482946
000020 ac 90 ec bd e7 17 b5 3c 79 e9 1d bb 4f 05 8e 3d
       -0.115510315 0.022106124 -0.002409546 0.06934606
000030 3f 5b 9f 3d 4e cf 0b 3e 18 2d 19 3e c1 cc d6 3d
       0.07781076 0.13653299 0.14958608 0.104882725
000040 59 3d ad bd af b5 a3 3c 55 d2 ae 3d 9c 4a 03 3c
       -0.08458967 0.019984094 0.085362114 0.008013394
000050 44 07 83 bd 00 50 ba bd d1 11 f3 3b 83 89 04 3e
       -0.0639787 -0.0909729 0.0074178954 0.12943082
000060 1c bb d4 bc 82 14 0a bd f3 b4 36 bd cb ae 19 3d
       -0.025968127 -0.033710964 -0.04460616 0.03752021
000070 83 d1 20 3e e1 71 ff 3d cb 61 34 bd 1f 4d d5 3d
       0.15704922 0.124728926 -0.044038575 0.104151
000080 31 76 8e bb 07 47 8f bd 2e fe 18 3d fb d6 a7 3d
       -0.0043475856 -0.06995969 0.03735178 0.08195301
000090 1f b2 22 3e 59 71 89 bd 9b f5 16 3e e5 73 1c be
       0.1588826 -0.067110725 0.14742129 -0.15278585
0000a0 29 9e 0f 3c cf 03 df bd 9a 2d b8 bd ec 5b 61 3d
       0.008765736 -0.10889398 -0.08993073 0.055019304
0000b0 2f c8 42 3b a5 be 13 3d f9 6a ff bd c5 ff c1 3d
       0.002972137 0.036070485 -0.12471575 0.09472612
0000c0 2c 29 04 3e 3c c6 a1 bd c8 87 e3 bd 35 cd d7 bd
       0.12906331 -0.07899138 -0.111098826 -0.10537187
0000d0 35 6d 2e be 8f 4a 12 3e 58 a3 41 3d 89 55 0d 3d
       -0.17033847 0.14286254 0.047274917 0.0345054
0000e0 97 7e 2e 3e a2 f9 c8 3d 27 7c ba bc e2 98 84 be
       0.17040478 0.09813239 -0.022764279 -0.2589789
0000f0 d5 95 14 3e 71 89 d4 bd b1 90 02 3d 42 b7 ef bd
       0.14510281 -0.10377777 0.03187627 -0.117048755
000100 eb a4 95 bc fe 31 62 bc a5 48 01 be 32 7b b5 bd
       -0.018267116 -0.013805864 -0.12625368 -0.08861388
000110 0f 8e f1 3d 22 f6 ae 3b e5 c9 f2 bd 64 30 40 be
       0.11794674 0.0053394 -0.118549146 -0.1876846
000120 93 49 19 bd a1 aa 82 3d ed 70 36 3d ac 3e d2 3c
       -0.03742368 0.06380201 0.04454129 0.02566465
000130 e6 69 b3 3d ac 94 92 bd 66 ee a2 3d 1d ba a8 bd
       0.08760433 -0.07157263 0.07955627 -0.08238623
000140 0d b1 90 bd 83 d3 14 3a 46 c2 46 b8 6a 94 9f bd
       -0.0706502 0.00056772697 -4.738781e-05 -0.077919796
000150 bb b5 2a be c9 ea 24 3e 58 58 9a 3d b8 73 f8 bd
       -0.16670887 0.16105188 0.075363815 -0.121314466
000160 4e a9 c0 3d 38 bf 30 3e a3 56 26 be 27 74 29 be
       0.09407292 0.17260444 -0.16243987 -0.16548215
000170 96 18 00 3d 56 c9 d3 3c b4 bc bc 3c de 1f 08 be
       0.031273447 0.02585284 0.0230392 -0.13293406
000180 50 4a 8e bd f5 45 5a bd d3 03 d5 bc 8d c9 bf 3b
       -0.06947768 -0.053289372 -0.0260028 0.005852884
000190 4a ec 6b 3d d5 f7 18 3e 4b 81 e6 3d 12 3b 1f bd
       0.05759839 0.1493829 0.112551294 -0.038874693
0001a0 dd 6f d4 3b fb 6b 27 3d 7a cc 87 bd 50 71 bf bd
       0.0064830617 0.040874463 -0.06630798 -0.093477845
0001b0 e1 b9 10 3e 55 bd 47 3c de 92 3a 3e 8a ea b4 3c
       0.14133407 0.012191136 0.18220088 0.022084493
0001c0 35 5f 80 3d 6e 31 15 3d db 29 3f 3e 8e 56 b0 3d
       0.06268159 0.036424093 0.1866831 0.08610259
0001d0 08 8e 27 3e b9 ff 14 be fc e6 91 bd 0f 63 2b 3d
       0.16362774 -0.14550675 -0.07124135 0.041842517
0001e0 76 ca 8c bd 72 0f b3 3d e0 fc e5 3c c1 db 1a 3d
       -0.06874554 0.0874318 0.028074682 0.03780723
0001f0 a2 68 06 3e 07 ef 47 3e c5 1a 84 bd f5 52 c5 bd
       0.13125852 0.19524775 -0.064504184 -0.096349634
000200 cb 77 4f 3c 3b 16 b8 bd 16 e4 5a 3e 6f 4d 93 3d
       0.012662838 -0.08988615 0.2137607 0.07192504
000210 62 79 b5 3c de f6 a4 3d 0f df 02 3c 5d c6 7f bd
       0.022152606 0.08054899 0.007987752 -0.062445033
000220 94 d0 aa 3d 62 aa 78 3d 6d ea 24 3e 2c b3 95 3d
       0.08340564 0.060709365 0.16105051 0.07309565
000230 fc ec 00 3e a6 f6 33 bd f3 0f a6 bd 80 f3 27 3e
       0.12590402 -0.043936394 -0.08108511 0.16401482
000240 2b 1e ec 3c 5d ef 2c be de c2 d0 bd 1e 81 fb 3d
       0.028822979 -0.16888185 -0.10193418 0.122804865
000250 a5 eb c2 bd 39 c0 58 3e fb f5 40 be ef 0d 4a bb
       -0.09517602 0.21167077 -0.18843834 -0.003083106
000260 80 48 1c be 88 cc 99 3d 87 8e e5 3c 46 5c 47 bd
       -0.15262032 0.07509714 0.028022064 -0.048671983
000270 17 47 fa bb 42 3b 7b bc 66 51 e3 bb e8 47 13 3e
       -0.007637869 -0.015333952 -0.0069371937 0.14382899
000280 18 54 13 3e dd d1 af 3b 87 2a 74 bd 89 53 d9 3c
       0.14387548 0.005365594 -0.05961087 0.02652909
000290 64 13 af 3d 06 e2 3e 3d 1a 10 11 be c9 62 1e be
       0.0854862 0.04660227 -0.14166299 -0.15467371
0002a0 c9 a4 fb bd 38 99 ae 3d 0a c8 0b 3d 0a ed 35 3e
       -0.1228729 0.08525318 0.03412632 0.17766204
0002b0 a9 db d0 3c 86 02 8f 3d 34 e8 fd bd 3d e2 02 3e
       0.025495367 0.06982903 -0.12397805 0.12781616
0002c0 6d 0f 01 3e a8 c1 18 3e 12 9b f7 bc 63 96 e6 bd
       0.1260354 0.14917624 -0.03022531 -0.11259153
0002d0 61 c1 30 be 03 05 1d bd 2e 49 b4 3d 85 0c 1e 3e
       -0.17261268 -0.038334858 0.088030204 0.15434463
0002e0 df 9a ba bd e0 75 dd bd 37 14 3d be 6e 73 43 be
       -0.091115706 -0.108134985 -0.18464743 -0.19087002
0002f0 d8 8b 26 3d b8 61 24 3e b3 94 02 3e 66 6d 0f be
       0.04066071 0.16052902 0.12752037 -0.14006576
000300 01 e1 26 3d 20 ca 09 3d fa 8a f8 3d 55 31 8b 3d
       0.040741924 0.033640027 0.12135883 0.06796519
000310 67 3a 63 bb 3b aa 01 be 51 9a 59 bd 85 dc 60 bd
       -0.0034672262 -0.12662594 -0.053125683 -0.054897804
000320 4a 7d ed 3d 9a df b1 bc aa e9 45 3d e4 c8 31 bc
       0.115961626 -0.021713067 0.048318543 -0.010851119
000330 06 07 11 be dc 55 5a bd ee e0 01 3e 5c 5c 1d bd
       -0.14162835 -0.053304538 0.1268346 -0.03841816
000340 8d 4a 43 be 4c 47 24 3e 05 c9 dd 3b 0d bc e0 bc
       -0.19071408 0.16042823 0.006768348 -0.02743342
000350 3b cb ea bd 1f e0 a2 3d 31 0e de 3d ad a8 56 3d
       -0.114645444 0.07952904 0.108425505 0.052406956
000360 88 ad 1b be dc 25 20 be 36 8e 3b 3e 50 31 74 3d
       -0.15202916 -0.15639442 0.18315968 0.05961734
000370 5a 35 59 be a0 cd 25 be 48 09 6f bc c8 b4 26 3e
       -0.21211758 -0.16191721 -0.014589615 0.162799
000380 f4 8f c4 bd 64 9d 19 3d 03 b3 13 bd 58 74 16 3e
       -0.095977694 0.037503615 -0.03605939 0.14692819
000390 e6 9a 00 3e 0a dd 92 3a cb 95 27 3e 85 94 15 be
       0.12559089 0.0011204791 0.16365735 -0.14607437
0003a0 31 a1 a1 bd 00 fa dc bb ee 7f 7e 3d a8 f8 a5 bd
       -0.07892073 -0.0067436695 0.062133722 -0.08104068
0003b0 6f 47 53 be cb 3f ef bd d8 e1 9e bd d9 a0 89 bd
       -0.20632719 -0.116820894 -0.0775792 -0.067201324
0003c0 f7 91 96 bc df 98 f3 3d 86 85 08 3d 87 de 91 bd
       -0.018380148 0.11894392 0.033330463 -0.07122522
0003d0 2e d5 02 bd e8 63 12 3e 8e 9a 74 bb 35 58 a2 3d
       -0.031941585 0.14295924 -0.0037323567 0.079269804
0003e0 3f 53 aa bd a8 c5 6b 3e 28 79 2c be 56 a9 13 3d
       -0.08316659 0.23024619 -0.16843092 0.036050163
0003f0 33 35 c5 3d a7 9e e8 bd 24 b7 76 3e ec 70 2e 3e
       0.096292876 -0.113583855 0.240933 0.17035264

network.1.0.fdeb.fcs.1.weight f4 [64, 32, 1, 1]
000000 07 da 02 bc 04 cf dd 3d 68 c1 1f bd 7f 8a 94 bd
       -0.007986552 0.10830501 -0.039002806 -0.072529785
000010 86 24 b9 3c 42 9a 20 be 94 87 f6 3d a8 29 e1 bd
       0.022600424 -0.15683845 0.12037578 -0.109942734
000020 92 65 b7 3d 22 c1 7c 3e 5f 69 26 3d f0 48 8d bd
       0.0895492 0.2468305 0.040627833 -0.06898677
000030 eb 04 02 3d 80 df bf bd 13 1d d5 3d 95 6a 00 bc
       0.03174297 -0.09368801 0.10405936 -0.007837911
000040 6a c5 b3 3d 7c a4 12 be 42 5e 83 be 56 f3 49 3e
       0.08777888 -0.14320558 -0.2565785 0.19721732
000050 f2 32 64 3d c3 1f 9a 3d 9c 19 e6 bd 14 e1 77 bd
       0.055712648 0.07525589 -0.11235353 -0.060517386
000060 d1 bb 84 3d 09 78 89 3d 07 e9 08 3d 64 54 08 be
       0.06481136 0.06712348 0.033425357 -0.13313442
000070 a2 84 f4 bc 40 1e 20 3e 81 83 a2 bd 53 26 b8 bd
       -0.0298484 0.1563654 -0.07935239 -0.08991685
000080 3c b5 b0 3d 34 13 c7 3d 3b 2c cb 3c 7e ed bb bd
       0.08628318 0.097204596 0.024801364 -0.091761574
000090 2f 11 59 3e f6 d1 8c bd b2 ac 69 be fc dc db 3d
       0.21197961 -0.06875984 -0.22819784 0.10735509
0000a0 b1 27 16 3d fa 04 e2 3d 4e c2 72 3c 87 1a 5b bc
       0.036658946 0.110361055 0.014816834 -0.013373024
0000b0 6f cc 9f bd 6a 55 08 be c4 0a 03 be 3d 76 0d 3e
       -0.078026645 -0.13313833 -0.12797076 0.13814636
0000c0 68 fb 85 3d c7 19 1e bc a2 b5 50 3d 28 c6 f8 3c
       0.065420926 -0.0096497005 0.05095447 0.030367926
0000d0 2c 34 d7 ba 35 db 00 3e 4c 84 45 3d 88 25 70 bd
       -0.0016418747 0.12583621 0.04822187 -0.058629543
0000e0 c2 37 b3 3d 6b c1 49 be ba b4 d5 bd 5f f6 b2 3d
       0.08750869 -0.1970269 -0.104348615 0.08738398
0000f0 af c4 b7 3d 0a 0c 4e 3e 37 05 b2 3c fd a4 a3 bc
       0.08973061 0.2012178 0.021731002 -0.019976133
000100 19 03 65 3d f2 9f 21 be 9c 56 43 bd d1 3d c2 3c
       0.055911157 -0.1578367 -0.04769002 0.023711117
000110 03 68 06 be 68 f1 1a be 4b ca c5 bd b5 25 48 be
       -0.13125615 -0.15131152 -0.09657725 -0.19545634
000120 83 99 a7 3b e8 72 14 3e 3a b5 33 3e 13 df e2 3d
       0.0051147356 0.14496958 0.17549601 0.11077704
000130 2c f2 62 3c 87 81 44 be 82 4f 49 3e af aa 10 be
       0.013851684 -0.19190036 0.19659236 -0.1412761
000140 46 70 06 be 23 8f 2b 3e a9 c5 24 3e 21 e9 ad 3d
       -0.13128766 0.16753821 0.16091026 0.084917314
000150 27 c5 78 bd 01 52 ef bc 64 7c d2 3d db dd 30 3e
       -0.060734894 -0.029213907 0.10277632 0.17272131
000160 40 c0 47 3c 65 62 c1 3d ff 9c 0f be 82 52 e1 3d
       0.012191832 0.094425954 -0.14024733 0.11002065
000170 50 50 2f be 23 a6 62 3d 50 cf 87 bd f8 57 7e 3d
       -0.1712048 0.05533422 -0.066313386 0.062095612
000180 ce 59 b6 3d 1b e2 b0 bd f3 8f f7 3d 78 0b 99 3d
       0.08903848 -0.08636876 0.12088003 0.074728906
000190 00 17 b5 3c 75 a6 e5 bd 5a 0e c0 bd bd 2d a9 3c
       0.022105694 -0.1121339 -0.09377737 0.020651693
0001a0 c1 34 09 3e 05 c7 d3 3c 09 2d e5 3d 4a 3c 34 3c
       0.1339903 0.025851736 0.111902304 0.011000702
0001b0 7e ca 12 3e 4a 38 a3 3d 0f 9f 4e bd 3e a3 93 3d
       0.14335057 0.07969721 -0.05044466 0.0720887
0001c0 dd 88 23 3e f7 56 61 be 2a 91 9f bd 69 33 ea 3d
       0.15970178 -0.2200583 -0.0779136 0.11435587
0001d0 40 8b 73 bc 42 ba 1c 3e bc 4d 67 be c9 84 23 3e
       -0.014864743 0.15305427 -0.22588247 0.15968622
0001e0 4f a9 fa bd 5f 56 e3 3d a9 59 20 be 43 04 f7 bd
       -0.12239324 0.11100458 -0.15659203 -0.1206136
0001f0 f1 a2 64 3e 21 41 86 3d 96 ea 20 be 95 13 27 bd
       0.22327782 0.06555391 -0.15714487 -0.04079016
000200 5f f6 09 be 7b 10 34 be 07 e2 12 3e 38 06 2b bd
       -0.1347289 -0.17584412 0.14344035 -0.041753978
000210 10 b1 2c be 6d 12 7b 3d 07 bf 49 3e ac 13 c1 3d
       -0.16864419 0.06129687 0.19701777 0.0942758
000220 ef 55 b0 3a bd df da 3c ed 98 3b bb 7b ef 0f 3e
       0.0013453345 0.026718015 -0.0028625086 0.14056198
000230 74 28 10 3d ce be d5 bc d7 7a 34 3e fc fa 45 bd
       0.03519483 -0.02609196 0.17624985 -0.04833506
000240 09 c7 bc bd 29 e9 8d bc dd ca 57 3d 30 22 df 3d
       -0.092176504 -0.017323093 0.0526837 0.108951926
000250 16 43 bb 3d f8 0e c6 bc 38 9d b2 3d 7a 40 c2 bb
       0.09143655 -0.02417706 0.08721393 -0.0059280964
000260 31 a7 03 be 39 62 f6 bc c4 e8 fd 3d f7 14 05 3e
       -0.12856747 -0.030076133 0.12397912 0.12996279
000270 a5 60 fe bd 65 4e 31 bd 77 3c 65 bd 61 7d a3 bc
       -0.12420777 -0.043287653 -0.055965867 -0.019957246
000280 76 c7 50 bd f3 a9 2e be 3d 4b 44 3d f0 e4 fd bd
       -0.05097147 -0.17057018 0.047923315 -0.12397182
000290 3b 27 0f 3e c2 ee fc bd d6 7c 6e 3d 7d fe 1d 3e
       0.13979809 -0.12350227 0.05822452 0.15429111
0002a0 10 68 23 bd 49 ce 17 bc b7 06 71 3e 91 2d 24 3e
       -0.039894164 -0.009265491 0.23537718 0.16033007
0002b0 8e bf c5 3d f4 e4 e3 3d 38 aa ba 3d 7f 3f 3f be
       0.09655677 0.11127654 0.09114498 -0.18676566
0002c0 d2 4e a0 3d d9 de fe 3d 8b a0 1f be 73 eb 77 bd
       0.07827534 0.124448486 -0.15588586 -0.060527276
0002d0 77 d7 99 bd f9 b2 6a 3d 87 02 48 bd bd d8 8d 3d
       -0.075118 0.057299588 -0.048830535 0.06926105
0002e0 8e 06 33 bd 7b a5 39 3d 13 66 03 bd 00 e5 45 3e
       -0.043707423 0.04532383 -0.032079767 0.19325638
0002f0 c9 1d 9f bd 5f 2c 10 3d 14 06 07 3e e6 93 1c bb
       -0.07769353 0.035198566 0.13185912 -0.0023891865
000300 2c d2 d6 bd 1b 34 4f bd b2 48 7d 3e 57 59 04 bc
       -0.10489306 -0.0505868 0.24734762 -0.008077941
000310 52 71 40 bd 1b a4 87 3e 15 af a2 ba 3e 55 e1 bd
       -0.04698307 0.2649239 -0.0012411798 -0.11002587
000320 3f d9 0b 3d 36 25 a7 3c ba ed 8d bd 21 f9 23 3e
       0.03414273 0.020403486 -0.06930108 0.16013004
000330 e7 3a c5 3d f7 51 3e 3d a1 ff 34 3d 29 56 c1 bc
       0.09630375 0.046464887 0.0441891 -0.023600655
000340 94 17 f4 bd 72 10 f0 3b db 46 2b 3d eb 78 11 bd
       -0.1191856 0.007326179 0.04181562 -0.035515707
000350 58 ba 4e bd 2c b2 01 be 2c 6f 52 bd 3d da 83 bb
       -0.05047068 -0.12665623 -0.051375553 -0.0040238188
000360 b3 c4 90 3d f7 a2 35 3d 21 1b 7c 3d 1f 0e 43 3d
       0.070687674 0.04434487 0.06154931 0.04762089
000370 8a a2 d8 bc e7 2d 18 be 9f 03 c7 3d 33 0b 71 bd
       -0.026444692 -0.1486126 0.097174875 -0.05884857
000380 90 d3 22 be 43 56 23 be 7a 68 c9 3d 94 94 63 bd
       -0.15901017 -0.15950875 0.098343804 -0.055561617
000390 e6 91 ed bd 6f 51 1b 3e 74 df 3d bd 73 e1 10 be
       -0.116000935 0.15167783 -0.04635568 -0.14148502
0003a0 9c 8b 09 be 01 79 d8 bd ed b3 47 bd b8 69 87 bd
       -0.13432163 -0.10569955 -0.048755575 -0.06611961
0003b0 ab a4 f0 3d c2 cb 01 be de 24 e2 3d 84 34 1b 3e
       0.11750158 -0.12675384 0.11042188 0.15156752
0003c0 99 9a ed bd 00 ab b9 3d a0 d6 07 3d 71 6a 72 bd
       -0.11601753 0.09065819 0.033163667 -0.05918354
0003d0 b4 7a 72 3e d6 62 70 3d 20 c7 13 bb 41 08 4d bd
       0.2367962 0.058688007 -0.0022549108 -0.0500567
0003e0 8c 23 c4 3d 2c 84 0b be 39 28 f3 bc 31 fd 1e 3e
       0.095770925 -0.13624638 -0.029682266 0.15526272
0003f0 4a 4f 49 bd b4 cb ac bd 25 f9 96 3d 31 fc be 3d
       -0.04914788 -0.08437291 0.07371739 0.093254454

network.1.0.fdeb.fcs.2.weight f4 [64, 32, 1, 1]
000000 c6 7e 25 3e da f5 20 be 86 36 cc 3d de 65 03 be
       0.16161641 -0.15718785 0.09971337 -0.12831828
000010 71 81 d0 3c b0 f2 93 3d 52 13 29 3e 0d c1 10 3d
       0.025452347 0.07224023 0.16511276 0.035340358
000020 62 8e e8 3d 24 eb df 3b a5 74 f0 3c df 4b d1 3d
       0.11355282 0.006833451 0.029352495 0.102195494
000030 bd dc 9e bd 43 e9 43 3d e6 cc 08 3d 23 45 56 3d
       -0.07756946 0.047829878 0.03339853 0.052312028
000040 c9 e1 2e 3e f5 48 c1 bd 82 dc e9 bd ee 54 1d 3e
       0.17078318 -0.094377436 -0.11419012 0.1536443
000050 6e 31 69 bd 7a 11 29 3b f3 7a 18 be ce 59 99 3d
       -0.056931905 0.002579777 -0.14890651 0.07487832
000060 9b 58 2a bb d9 de 2b b9 23 b3 aa 3d b1 f4 27 3d
       -0.0025992754 -0.00016390848 0.08334949 0.04100484
000070 57 05 03 be d9 40 ab bd 8c 9f f5 bd d3 16 bf bd
       -0.12795006 -0.08361978 -0.11993322 -0.09330525
000080 f0 b5 ed 3d aa d7 22 3e 12 16 1b 3e 4e ca e1 bd
       0.116069674 0.15902582 0.15145138 -0.11024915
000090 31 33 0c 3d be 1a 31 3e e1 66 0a 3d 15 76 41 3d
       0.034228507 0.17295358 0.03378952 0.047231752
0000a0 d4 ff 81 3d 83 ee 00 3d e5 b6 b1 bd ca 3b 12 bd
       0.063476235 0.031477463 -0.086774625 -0.03570155
0000b0 95 dd bf 3d a9 9e 80 3d 0d 8a 6d 3d 6b ca 31 3d
       0.09368435 0.06280262 0.057992984 0.04340593
0000c0 36 39 04 3e 59 fa 1f be 65 1c 1e be 0b b4 3c be
       0.12912449 -0.15622844 -0.15440519 -0.18428056
0000d0 1c 53 c3 3c 07 c6 d2 3b 02 59 0f be 3b 76 28 bd
       0.02384334 0.006432298 -0.13998798 -0.04112838
0000e0 68 6d e8 bd 7a 00 28 3e 91 49 05 be 7b d1 e3 bd
       -0.113489926 0.16406432 -0.13016345 -0.111239396
0000f0 21 b0 95 3c 6f 39 07 3e 4d b8 4d bd 88 d5 48 3e
       0.018272461 0.13205503 -0.05022459 0.19612706
000100 d8 38 fd bc 3e 85 4e 3d 24 91 12 3e 17 e2 b5 3d
       -0.030910894 0.05042004 0.14313179 0.08881014
000110 3f be f4 3d 70 6d 27 3d a8 9e 03 be 90 e7 70 bb
       0.11950349 0.040875852 -0.12853491 -0.0036759116
000120 77 9b e8 bd 4f 76 16 bd 1c 8f 1e 3e 4c 34 0d 3e
       -0.113577776 -0.03673392 0.1548428 0.13789481
000130 99 64 3c 3e 88 c4 f0 3b 1e 9e 8b bd bf a1 50 bc
       0.1839775 0.007347647 -0.06817268 -0.012733876
000140 e8 b5 fe 3d cd c5 a0 3b 89 bb 03 3e df 90 00 be
       0.124370396 0.004906392 0.12864508 -0.12555264
000150 70 48 c6 bd da 95 43 3d ee 2c ea bd 77 53 df 3d
       -0.09681785 0.04775033 -0.11434351 0.109045915
000160 21 4f 36 3c 01 ee f3 bd d6 3b df bd d1 6b 2f be
       0.011127264 -0.1191063 -0.10900085 -0.17130972
000170 e6 b7 98 bc 77 aa e9 bc 12 45 c6 bd bf 19 c3 bd
       -0.018642377 -0.028523667 -0.09681143 -0.09526395
000180 04 e3 ac 3d 8c 86 56 bd 9a 5e 62 3d 3c b2 cb bd
       0.08441737 -0.052374408 0.055266 -0.09946105
000190 83 a8 de 3c 81 13 6c 3d a1 5f 7a 3d b7 79 f2 3d
       0.027179962 0.057635788 0.061126355 0.118396215
0001a0 75 33 96 3d 2e c9 61 bd b9 9c 6a bc ab 60 f1 bd
       0.073340334 -0.0551235 -0.014319592 -0.11786016
0001b0 30 c3 9e bc 44 32 fb bb 10 83 61 3d a7 68 ca 3d
       -0.019380182 -0.0076659042 0.05505663 0.09883242
0001c0 9b dc 1d 3e 94 26 12 be 8d cb 06 3e 99 6a 08 bd
       0.15416186 -0.14272529 0.13163586 -0.033304784
0001d0 a7 f8 80 bb 0a 3f d5 3d a3 e0 d9 bd 40 f2 5e 3d
       -0.0039358917 0.10412414 -0.10638549 0.054430246
0001e0 1b 2a 00 be 2c 79 a2 bd b2 b9 09 be 7b db 81 bd
       -0.12516062 -0.07933268 -0.13449743 -0.06340691
0001f0 1d eb 24 3d 71 9f ee 3c 0e f5 2d 3e 70 60 94 3d
       0.040263284 0.029128762 0.16988012 0.072449565
000200 d5 bc 2c be 1a 55 45 3d 0d f8 c0 bd 7d 89 8a 3d
       -0.16868909 0.048176862 -0.09422312 0.06764505
000210 63 2f 69 3c 5d 7d 36 3e e3 ff ea bd f9 f1 94 3d
       0.014232489 0.1782126 -0.11474588 0.07272715
000220 9e 17 31 be c1 3b 81 bd b4 dd bd 3c 12 07 38 be
       -0.17294165 -0.06310225 0.023177005 -0.17971447
000230 46 75 31 3d c2 c2 2d bc c6 08 17 bd e2 64 fb bd
       0.04332473 -0.010605516 -0.0368736 -0.12275101
000240 f2 4b 93 bd f1 33 c2 3d c8 8f dc 3a c6 6a 26 bd
       -0.0719222 0.09482563 0.0016827518 -0.04062917
000250 cf 36 23 3d e0 f7 67 3d 10 54 8e bd 43 36 be bd
       0.03984719 0.056632876 -0.069496274 -0.09287693
000260 54 cc b9 3c 7a 36 17 be a9 59 90 3d 42 c6 98 3d
       0.022680439 -0.14766875 0.07048351 0.0745969
000270 4a 4e 9b bd 0e 1b 4d 3d fe 0b fe bd 3b cf 7a 3d
       -0.07583292 0.05007463 -0.12404631 0.061232787
000280 e3 d5 e8 3d c5 4d 11 3e b4 7c b3 3d 44 e3 5d 3d
       0.11368921 0.14189823 0.087640196 0.054171816
000290 b7 55 d1 3d 90 f3 56 bd 4d 62 1d 3e 16 fc 8d bd
       0.10221427 -0.052478373 0.1536953 -0.06932847
0002a0 0f fc ea bd 27 79 9c bd 2e 94 ca 3d ba 39 2b bd
       -0.114738576 -0.076402955 0.09891544 -0.0418031
0002b0 ba d2 04 3e 67 39 c1 3d 2a cc 0d 3e 7d 5a 2c be
       0.12971011 0.09434777 0.13847414 -0.16831394
0002c0 ee 70 79 bd f7 21 fa 3d 79 3d d6 3c 37 cf 62 3e
       -0.060898714 0.122135095 0.02615236 0.22149359
0002d0 f2 90 39 3d 5c df d3 3d b9 28 b4 3d d5 80 e0 bd
       0.045304246 0.10345337 0.0879683 -0.10962073
0002e0 9f d2 24 3e 14 e2 23 3b 6d 78 0f 3e 82 73 fb bc
       0.1609597 0.002500658 0.14010783 -0.030694727
0002f0 51 e0 02 bd a9 4b fb bd 16 a9 0b be 53 20 0e 3e
       -0.031952206 -0.122702904 -0.1363872 0.13879518
000300 dc a6 5c bd 94 82 bb 3c 0f ab 0d bb 2b 11 2d 3e
       -0.053870067 0.022889413 -0.0021616851 0.1690108
000310 aa 2d 00 be 4b 70 f4 3c ba 6f 5a 3e 3b 7b 92 bc
       -0.1251742 0.029838702 0.21331683 -0.017881026
000320 3e 7a 98 bd f4 9e 44 bc 99 42 16 3d 1a 0c 5d bd
       -0.07445191 -0.012000788 0.036684606 -0.05396662
000330 ae 16 af 3c aa 06 63 3d 3a 2d 41 3b a8 c2 c2 bd
       0.02137312 0.055426277 0.002947642 -0.09509784
000340 7b f3 f3 3b e3 c1 ca 3d 38 27 20 3e 18 8f 2d 3e
       0.0074447966 0.09900262 0.15639961 0.16949117
000350 7b fa d4 bd 64 86 e5 bd fd 02 c6 3d be db f9 3d
       -0.10399338 -0.112072736 0.09668539 0.122001156
000360 30 7f 2b be 4d b6 cd bd 2f cb 65 3e 60 37 c7 3d
       -0.16747737 -0.10044537 0.2244079 0.09727359
000370 89 1e 88 be 41 77 28 3e 6b 00 d6 3d 56 7a 15 3e
       -0.26585796 0.16451742 0.104492985 0.14597449
000380 a3 68 d3 bd 27 d9 dc bd cd 0f 05 bd 11 15 37 bb
       -0.10322692 -0.10783606 -0.032485772 -0.002793614
000390 b3 57 23 bc 7a e9 2d 3d f0 59 bb bd aa 96 24 3d
       -0.00996964 0.04245899 -0.091480136 0.040182747
0003a0 3a 4d d9 bd 69 8d 77 3d 23 71 3d 3d 02 97 a0 bd
       -0.10610433 0.060437594 0.046250474 -0.078413025
0003b0 bb 3c c7 3d 70 81 b5 3d 0d c8 bc bc 42 b9 1b 3d
       0.0972838 0.08862579 -0.02304461 0.038018472
0003c0 95 bd 33 be 9c ef ec 3d 36 b1 63 3d ef a6 ca bd
       -0.17552789 0.11569139 0.055588923 -0.09895121
0003d0 08 d3 ab bd 9d ac ce bd 29 5b 7d 3d 6e 03 e6 bd
       -0.083898604 -0.10091517 0.061854515 -0.11231123
0003e0 9a 31 be 3d f3 21 15 bd fe 99 0c be 52 55 18 bc
       0.092868045 -0.03640933 -0.13730618 -0.009297686
0003f0 8e e7 a1 bd 7c 5e d6 3d c2 2c 21 3e 69 93 d5 bd
       -0.07905494 0.1046724 0.1573973 -0.10428507

network.1.0.fdeb.fcs.3.weight f4 [64, 32, 1, 1]
000000 1d 5e 7f bb 4a 9f 8a 3d cb e9 49 3d d9 f8 0f be
       -0.0038966008 0.06768663 0.049295228 -0.14059772
000010 5c 0a 89 3d 5f 32 23 3d 02 cf 30 3e 11 3c 95 bb
       0.06691429 0.03984296 0.17266467 -0.0045542796
000020 e3 e5 44 bd 44 bc 27 3d 8c 7d 38 be 5e ee 2f 3e
       -0.0480708 0.04095103 -0.18016642 0.17180774
000030 80 f1 9b bd 98 62 65 3d ee a5 33 be 90 dc 07 be
       -0.07614422 0.05600223 -0.17543766 -0.13267732
000040 28 63 1b be 2e 2e e3 3b 64 46 57 be 49 92 a3 bc
       -0.15174544 0.0069329953 -0.21022946 -0.019967215
000050 cf bf 21 bd 85 7a ec 3d 06 03 27 bd 8c e1 ab bd
       -0.039489564 0.11546806 -0.040774368 -0.08392629
000060 03 9f 5b bd 37 63 15 be 3c db e7 3d 1a bd 1c 3c
       -0.053618442 -0.14588629 0.113211125 0.00956657
000070 21 54 c0 bd 63 34 a5 bd 65 2e 29 be 1e 00 85 bd
       -0.09391046 -0.080666326 -0.16521604 -0.06494163
000080 58 f2 4c 3d a5 bf 50 3d b0 fd 26 be 57 43 f1 3c
       0.050035805 0.050964016 -0.16307712 0.029451055
000090 9d cb 38 3d bc c0 1a 3e 52 ce 1c bd 07 ef bd bb
       0.045116056 0.15112585 -0.0382827 -0.0057963165
0000a0 a6 f8 0d be e8 a6 e9 bc 41 7a 4a be ed f9 7d bd
       -0.13864383 -0.02852197 -0.19773199 -0.062005926
0000b0 48 b8 c9 bc 42 0c 07 be 91 25 91 bc 57 63 b4 bd
       -0.024624005 -0.1318827 -0.017718108 -0.0880801
0000c0 1a 98 42 bd c0 13 32 3e ca d4 ff 3d df fb d6 3d
       -0.047508337 0.17390347 0.12491758 0.10497259
0000d0 53 c6 d2 bc 27 19 c3 3d 7d 5c f3 bc df b3 72 bb
       -0.025729334 0.09526282 -0.029707188 -0.003703348
0000e0 6a 74 ce bd 3a b9 94 3c 15 bb 1b be 93 c8 c2 3d
       -0.10080798 0.01815473 -0.15208085 0.09510913
0000f0 a2 64 75 bd 66 1c 1d 3e 76 d9 a7 bd c2 6d ef bd
       -0.059910424 0.15342864 -0.08195774 -0.116908565
000100 f1 f1 87 bd 4c 32 9c 3d 80 77 c4 bb 58 75 92 bd
       -0.066379435 0.07626781 -0.005995691 -0.07151288
000110 42 f2 0f be 8d f5 97 be 5a f6 57 3e 45 90 0e 3e
       -0.14057258 -0.29679528 0.2109007 0.13922222
000120 44 23 41 3e 3f d0 fd 3d b7 7b d7 3c 62 bf 1e be
       0.18861109 0.123932354 0.026304109 -0.15502694
000130 4c 39 27 be 45 78 d7 bd b4 6b fe 3a 78 df 0c 3d
       -0.16330451 -0.105209865 0.001941076 0.034392804
000140 10 6d ad 3d 7e a3 1b be 96 67 17 be ad 79 df 3d
       0.08468068 -0.15199086 -0.14785609 0.1091188
000150 e4 ac e9 bd 0f c9 00 3e c3 05 12 bd 27 a2 38 3e
       -0.114099294 0.12576698 -0.035650026 0.18030606
000160 e1 fa 78 bd 28 ec 9e 3c 74 08 ac 3d 6c 09 10 3d
       -0.06078613 0.019399717 0.0840005 0.035165235
000170 e2 11 e7 bd 86 2b c5 bd 50 8a 67 bb 47 c3 55 3e
       -0.11282708 -0.09627442 -0.0035330243 0.20875274
000180 65 a0 8b bd f0 1e 66 bd 04 13 f2 3d 03 a5 b4 3d
       -0.06817702 -0.056181848 0.11820033 0.08820536
000190 85 6a 28 bc 81 e8 8a bd f5 ea cd 3d 0c 45 07 3e
       -0.0102793025 -0.06782628 0.1005458 0.13209933
0001a0 64 bf 99 3d ad 4f cf bc 20 e6 7d 3d a8 7c 2f 3e
       0.07507208 -0.025306547 0.061987042 0.17137396
0001b0 c1 63 28 bd 1b 87 5c 3d ab df 85 bd f7 d0 ba 3c
       -0.041110758 0.053839784 -0.06536802 0.02280472
0001c0 ed d1 90 3c a3 22 d4 bd 63 71 77 bc d4 d8 82 3c
       0.017678225 -0.10358169 -0.015102717 0.015972532
0001d0 26 22 27 3c 67 b4 e5 bd 47 7c 14 bd f9 c7 9b bd
       0.010201013 -0.1121605 -0.036251333 -0.07606501
0001e0 f0 d6 2e be 8e b2 ab bb e8 1d 46 3d ae f7 c9 bd
       -0.1707418 -0.0052397912 0.048368365 -0.09861694
0001f0 83 91 b5 3d d6 65 71 3d dc 3b 19 3d 1a d5 0e be
       0.08865645 0.05893501 0.037410602 -0.1394848
000200 4b 15 9e bd 2c 51 22 be bc 90 79 bd 2e 65 88 3c
       -0.07718905 -0.15851277 -0.060929045 0.016649809
000210 74 e4 82 3d 28 6e d9 bd c7 22 90 3d c7 7a ef bd
       0.0639123 -0.10616714 0.07037883 -0.1169334
000220 bd 75 c9 3d da 27 05 be 58 c2 7e bd 58 0e 0c bd
       0.0983691 -0.13003483 -0.06219706 -0.034193367
000230 fc 36 d7 bd ad 2f 77 3d 27 a0 d2 bb a2 37 93 3c
       -0.10508534 0.0603482 -0.006427783 0.017970864
000240 8c bb 0e be 0f 87 da 3d 7a b5 04 3d f9 c5 a8 3d
       -0.13938731 0.10670292 0.032399632 0.08240885
000250 ef 57 f9 3b dd 44 aa bc 27 14 10 bd 52 2b 11 be
       0.0076093595 -0.02078479 -0.03517547 -0.14176682
000260 4a 99 e8 3d 1d 80 f3 bd 3e c5 33 3d b2 66 ac 3d
       0.113573626 -0.1188967 0.043889277 0.08418025
000270 61 dc f2 bd a4 4f 22 3d 71 ec 87 3d 18 5a c6 bd
       -0.1185844 0.039626732 0.066368945 -0.09685153
000280 76 af f6 3d ad 9f 3e 3d fd 4e 47 bd 8a 61 3d be
       0.12045185 0.046538997 -0.048659313 -0.1849424
000290 55 00 76 bd 51 a6 39 3d ae 11 da bd da a6 20 bd
       -0.06005891 0.045324627 -0.106479034 -0.039221622
0002a0 e0 a5 d8 bd 39 dd 22 3e 3c ce f4 3c b6 e1 03 be
       -0.10578513 0.15904702 0.029883496 -0.1287907
0002b0 99 93 fd 3d 1c 6b 16 3e 86 26 c8 3d 5e c8 e4 bd
       0.12381668 0.14689296 0.09772973 -0.111710295
0002c0 ed 59 5e 3d 67 ac 43 bd 33 f4 b2 3d 21 9c 6d 3e
       0.05428498 -0.047771838 0.087379836 0.2320409
0002d0 a2 a8 e3 bd a8 fb 10 3d 41 37 00 be 04 13 2d 3e
       -0.111161485 0.035396248 -0.12521078 0.16901785
0002e0 9b e8 83 bd 9c 3c 18 3e 28 a0 e2 3d a1 5a 70 3d
       -0.0644085 0.1486687 0.11065704 0.05868018
0002f0 67 18 17 be d7 7f 12 be a6 6d 19 3d 03 d9 9c 3d
       -0.14755403 -0.1430658 0.037458085 0.07658579
000300 bd 74 49 3b 26 b5 6b 3d e4 2b 44 3d d4 11 52 be
       0.0030739747 0.057545803 0.04789342 -0.20514613
000310 cf 27 e7 bc c3 ee 06 bc 0e ec 8e 3d 9c 3b ca 3c
       -0.028217224 -0.008235636 0.069786176 0.024686627
000320 42 c8 68 bb d8 1f ab bd 9a 59 11 be bb 62 df 3d
       -0.0035519754 -0.08355683 -0.14194337 0.10907503
000330 fe 25 46 bd 07 0a 8b 3d 14 2e c2 bd 0e 7d de bd
       -0.048376076 0.06789022 -0.09481445 -0.10863696
000340 ce 17 e1 bd 8c ea c3 bd ee d3 b4 bd 79 f0 0a 3e
       -0.109908685 -0.09566221 -0.08829485 0.13568296
000350 a8 07 13 bd 72 30 61 3d d7 22 ed bd 4d d3 a2 bc
       -0.035895973 0.05497784 -0.11578911 -0.019876147
000360 22 4c d5 3c be 7e 71 be 14 90 b7 bc b5 d7 b6 ba
       0.02603728 -0.23583505 -0.022407569 -0.0013949784
000370 23 1c ca bd cd df 85 3d a2 af d8 bc 3f 5f 3e 3d
       -0.09868648 0.06536827 -0.026450936 0.046477553
000380 aa 90 e2 bd 38 68 2a bc 56 93 42 bd 26 cc 8e 3d
       -0.11062749 -0.010400824 -0.04750379 0.06972532
000390 f1 f7 00 bd 82 3b 6a 3c a2 a9 c2 bd 4f 2d 05 3e
       -0.031486455 0.014296414 -0.09505011 0.13005565
0003a0 05 5e 01 bd b1 5e f5 3d 27 75 28 3d 24 41 6c bb
       -0.031583805 0.119809516 0.04112735 -0.003604957
0003b0 6d d6 b1 3d 69 a0 05 3d 3e 7d 12 bd 90 1f 1c be
       0.086834766 0.032623682 -0.03576397 -0.15246415
0003c0 11 62 9e 3d 54 df e6 bd 25 30 1f be 78 5c e7 3d
       0.077335484 -0.11273065 -0.1554571 0.11296934
0003d0 fa 9e 5b 3e a1 05 1f be af ed f0 3d 1f 22 8c bc
       0.21447363 -0.15529491 0.117640845 -0.017106114
0003e0 3e 04 f9 3d bd 5d 6b bd 90 50 eb 3d 41 cc cd 3c
       0.12159012 -0.057462443 0.114899755 0.02512181
0003f0 88 2b 08 3d df eb 51 bd 87 ee 0a be ae 40 b1 bd
       0.03324464 -0.051250335 -0.13567553 -0.08654915
